…
2020-12-03 19:07:06.562857: I tensorflow/stream_executor/platform/default/dso_loader.cc:48] Successfully opened dynamic library libcublas.so.10
2020-12-03 19:07:07.359073: I tensorflow/stream_executor/platform/default/dso_loader.cc:48] Successfully opened dynamic library libcudnn.so.7
Model: "vgg19"
_________________________________________________________________
Layer (type)                 Output Shape              Param #   
=================================================================
input_1 (InputLayer)         [(None, 300, 300, 3)]     0         
_________________________________________________________________
block1_conv1 (Conv2D)        (None, 300, 300, 64)      1792      
_________________________________________________________________
block1_conv2 (Conv2D)        (None, 300, 300, 64)      36928     
_________________________________________________________________
block1_pool (MaxPooling2D)   (None, 150, 150, 64)      0         
_________________________________________________________________
block2_conv1 (Conv2D)        (None, 150, 150, 128)     73856     
_________________________________________________________________
block2_conv2 (Conv2D)        (None, 150, 150, 128)     147584    
_________________________________________________________________
block2_pool (MaxPooling2D)   (None, 75, 75, 128)       0         
_________________________________________________________________
block3_conv1 (Conv2D)        (None, 75, 75, 256)       295168    
_________________________________________________________________
block3_conv2 (Conv2D)        (None, 75, 75, 256)       590080    
_________________________________________________________________
block3_conv3 (Conv2D)        (None, 75, 75, 256)       590080    
_________________________________________________________________
block3_conv4 (Conv2D)        (None, 75, 75, 256)       590080    
_________________________________________________________________
block3_pool (MaxPooling2D)   (None, 37, 37, 256)       0         
_________________________________________________________________
block4_conv1 (Conv2D)        (None, 37, 37, 512)       1180160   
_________________________________________________________________
block4_conv2 (Conv2D)        (None, 37, 37, 512)       2359808   
_________________________________________________________________
block4_conv3 (Conv2D)        (None, 37, 37, 512)       2359808   
_________________________________________________________________
block4_conv4 (Conv2D)        (None, 37, 37, 512)       2359808   
_________________________________________________________________
block4_pool (MaxPooling2D)   (None, 18, 18, 512)       0         
_________________________________________________________________
block5_conv1 (Conv2D)        (None, 18, 18, 512)       2359808   
_________________________________________________________________
block5_conv2 (Conv2D)        (None, 18, 18, 512)       2359808   
_________________________________________________________________
block5_conv3 (Conv2D)        (None, 18, 18, 512)       2359808   
_________________________________________________________________
block5_conv4 (Conv2D)        (None, 18, 18, 512)       2359808   
_________________________________________________________________
block5_pool (MaxPooling2D)   (None, 9, 9, 512)         0         
_________________________________________________________________
global_average_pooling2d (Gl (None, 512)               0         
=================================================================
Total params: 20,024,384
Trainable params: 20,024,384
Non-trainable params: 0
_________________________________________________________________
tf.Tensor(45106724.0, shape=(), dtype=float32)
Traceback (most recent call last):
  File "index.py", line 167, in <module>
    image_to_save.save(f"generated_images/{epoch}_image.jpg")
…
